…
I0709 00:05:33.851151 15830 net.cpp:316] The NetState phase (0) differed from the phase (1) specified by a rule in layer accuracy
I0709 00:05:33.851233 15830 net.cpp:47] Initializing net from parameters:
state {
phase: TRAIN
}
layer {
name: "mnist"
type: "Data"
top: "data"
top: "label"
include {
phase: TRAIN
}
transform_param {
mean_file: "/home/demulab/digits-2.0/digits/digits/jobs/20150709-000506-f35f/mean.binaryproto"
}
data_param {
source: "/home/demulab/digits-2.0/digits/digits/jobs/20150709-000506-f35f/train_db"
batch_size: 64
backend: LMDB
prefetch: 4
}
}
layer {
name: "scale"
type: "Power"
bottom: "data"
top: "scale"
power_param {
scale: 0.0125
}
}
layer {
name: "conv1"
type: "Convolution"
bottom: "scale"
top: "conv1"
param {
lr_mult: 1
}
param {
lr_mult: 2
}
convolution_param {
num_output: 20
kernel_size: 5
stride: 1
weight_filler {
type: "xavier"
}
bias_filler {
type: "constant"
}
}
}
layer {
name: "pool1"
type: "Pooling"
bottom: "conv1"
top: "pool1"
pooling_param {
pool: MAX
kernel_size: 2
stride: 2
}
}
layer {
name: "conv2"
type: "Convolution"
bottom: "pool1"
top: "conv2"
param {
lr_mult: 1
}
param {
lr_mult: 2
}
convolution_param {
num_output: 50
kernel_size: 5
stride: 1
weight_filler {
type: "xavier"
}
bias_filler {
type: "constant"
}
}
}
layer {
name: "pool2"
type: "Pooling"
bottom: "conv2"
top: "pool2"
pooling_param {
pool: MAX
kernel_size: 2
stride: 2
}
}
layer {
name: "ip1"
type: "InnerProduct"
bottom: "pool2"
top: "ip1"
param {
lr_mult: 1
}
param {
lr_mult: 2
}
inner_product_param {
num_output: 500
weight_filler {
type: "xavier"
}
bias_filler {
type: "constant"
}
}
}
layer {
name: "relu1"
type: "ReLU"
bottom: "ip1"
top: "ip1"
}
layer {
name: "ip2"
type: "InnerProduct"
bottom: "ip1"
top: "ip2"
param {
lr_mult: 1
}
param {
lr_mult: 2
}
inner_product_param {
num_output: 2
weight_filler {
type: "xavier"
}
bias_filler {
type: "constant"
}
}
}
layer {
name: "loss"
type: "SoftmaxWithLoss"
bottom: "ip2"
bottom: "label"
top: "loss"
}
I0709 00:05:33.851292 15830 layer_factory.hpp:75] Creating layer mnist
I0709 00:05:33.851817 15830 net.cpp:99] Creating Layer mnist
I0709 00:05:33.851840 15830 net.cpp:409] mnist -> data
I0709 00:05:33.851862 15830 net.cpp:409] mnist -> label
I0709 00:05:33.851871 15830 net.cpp:131] Setting up mnist
I0709 00:05:33.852819 15835 db.cpp:34] Opened lmdb /home/demulab/digits-2.0/digits/digits/jobs/20150709-000506-f35f/train_db
I0709 00:05:33.853029 15830 data_layer.cpp:37] Decoding Datum
I0709 00:05:33.853044 15830 data_layer.cpp:60] output data size: 64,3,32,32
I0709 00:05:33.853051 15830 data_transformer.cpp:23] Loading mean file from: /home/demulab/digits-2.0/digits/digits/jobs/20150709-000506-f35f/mean.binaryproto
I0709 00:05:33.858846 15830 net.cpp:140] Top shape: 64 3 32 32 (196608)
I0709 00:05:33.858904 15830 net.cpp:140] Top shape: 64 (64)
I0709 00:05:33.858917 15830 layer_factory.hpp:75] Creating layer scale
I0709 00:05:33.858954 15830 net.cpp:99] Creating Layer scale
I0709 00:05:33.858963 15830 net.cpp:453] scale <- data
I0709 00:05:33.858979 15830 net.cpp:409] scale -> scale
I0709 00:05:33.858994 15830 net.cpp:131] Setting up scale
I0709 00:05:33.859009 15830 net.cpp:140] Top shape: 64 3 32 32 (196608)
I0709 00:05:33.859067 15830 layer_factory.hpp:75] Creating layer conv1
I0709 00:05:33.859083 15830 net.cpp:99] Creating Layer conv1
I0709 00:05:33.859088 15830 net.cpp:453] conv1 <- scale
I0709 00:05:33.859097 15830 net.cpp:409] conv1 -> conv1
I0709 00:05:33.859107 15830 net.cpp:131] Setting up conv1
I0709 00:05:33.918813 15830 net.cpp:140] Top shape: 64 20 28 28 (1003520)
I0709 00:05:33.918846 15830 layer_factory.hpp:75] Creating layer pool1
I0709 00:05:33.918860 15830 net.cpp:99] Creating Layer pool1
I0709 00:05:33.918865 15830 net.cpp:453] pool1 <- conv1
I0709 00:05:33.918872 15830 net.cpp:409] pool1 -> pool1
I0709 00:05:33.918880 15830 net.cpp:131] Setting up pool1
I0709 00:05:33.919117 15830 net.cpp:140] Top shape: 64 20 14 14 (250880)
I0709 00:05:33.919126 15830 layer_factory.hpp:75] Creating layer conv2
I0709 00:05:33.919137 15830 net.cpp:99] Creating Layer conv2
I0709 00:05:33.919141 15830 net.cpp:453] conv2 <- pool1
I0709 00:05:33.919147 15830 net.cpp:409] conv2 -> conv2
I0709 00:05:33.919154 15830 net.cpp:131] Setting up conv2
I0709 00:05:33.920114 15830 net.cpp:140] Top shape: 64 50 10 10 (320000)
I0709 00:05:33.920138 15830 layer_factory.hpp:75] Creating layer pool2
I0709 00:05:33.920150 15830 net.cpp:99] Creating Layer pool2
I0709 00:05:33.920157 15830 net.cpp:453] pool2 <- conv2
I0709 00:05:33.920166 15830 net.cpp:409] pool2 -> pool2
I0709 00:05:33.920176 15830 net.cpp:131] Setting up pool2
I0709 00:05:33.920249 15830 net.cpp:140] Top shape: 64 50 5 5 (80000)
I0709 00:05:33.920255 15830 layer_factory.hpp:75] Creating layer ip1
I0709 00:05:33.920272 15830 net.cpp:99] Creating Layer ip1
I0709 00:05:33.920276 15830 net.cpp:453] ip1 <- pool2
I0709 00:05:33.920282 15830 net.cpp:409] ip1 -> ip1
I0709 00:05:33.920291 15830 net.cpp:131] Setting up ip1
I0709 00:05:33.925015 15830 net.cpp:140] Top shape: 64 500 (32000)
I0709 00:05:33.925045 15830 layer_factory.hpp:75] Creating layer relu1
I0709 00:05:33.925057 15830 net.cpp:99] Creating Layer relu1
I0709 00:05:33.925063 15830 net.cpp:453] relu1 <- ip1
I0709 00:05:33.925072 15830 net.cpp:396] relu1 -> ip1 (in-place)
I0709 00:05:33.925081 15830 net.cpp:131] Setting up relu1
I0709 00:05:33.925169 15830 net.cpp:140] Top shape: 64 500 (32000)
I0709 00:05:33.925176 15830 layer_factory.hpp:75] Creating layer ip2
I0709 00:05:33.925186 15830 net.cpp:99] Creating Layer ip2
I0709 00:05:33.925191 15830 net.cpp:453] ip2 <- ip1
I0709 00:05:33.925197 15830 net.cpp:409] ip2 -> ip2
I0709 00:05:33.925206 15830 net.cpp:131] Setting up ip2
I0709 00:05:33.925272 15830 net.cpp:140] Top shape: 64 2 (128)
I0709 00:05:33.925281 15830 layer_factory.hpp:75] Creating layer loss
I0709 00:05:33.925295 15830 net.cpp:99] Creating Layer loss
I0709 00:05:33.925299 15830 net.cpp:453] loss <- ip2
I0709 00:05:33.925304 15830 net.cpp:453] loss <- label
I0709 00:05:33.925312 15830 net.cpp:409] loss -> loss
I0709 00:05:33.925318 15830 net.cpp:131] Setting up loss
I0709 00:05:33.925323 15830 layer_factory.hpp:75] Creating layer loss
…
I0709 00:05:33.925923 15830 solver.cpp:167] Creating test net (#0) specified by net file: train_val.prototxt
I0709 00:05:33.925957 15830 net.cpp:316] The NetState phase (1) differed from the phase (0) specified by a rule in layer mnist
I0709 00:05:33.926045 15830 net.cpp:47] Initializing net from parameters:
state {
phase: TEST
}
layer {
name: "mnist"
type: "Data"
top: "data"
top: "label"
include {
phase: TEST
}
transform_param {
mean_file: "/home/demulab/digits-2.0/digits/digits/jobs/20150709-000506-f35f/mean.binaryproto"
}
data_param {
source: "/home/demulab/digits-2.0/digits/digits/jobs/20150709-000506-f35f/val_db"
batch_size: 100
backend: LMDB
}
}
layer {
name: "scale"
type: "Power"
bottom: "data"
top: "scale"
power_param {
scale: 0.0125
}
}
layer {
name: "conv1"
type: "Convolution"
bottom: "scale"
top: "conv1"
param {
lr_mult: 1
}
param {
lr_mult: 2
}
convolution_param {
num_output: 20
kernel_size: 5
stride: 1
weight_filler {
type: "xavier"
}
bias_filler {
type: "constant"
}
}
}
layer {
name: "pool1"
type: "Pooling"
bottom: "conv1"
top: "pool1"
pooling_param {
pool: MAX
kernel_size: 2
stride: 2
}
}
layer {
name: "conv2"
type: "Convolution"
bottom: "pool1"
top: "conv2"
param {
lr_mult: 1
}
param {
lr_mult: 2
}
convolution_param {
num_output: 50
kernel_size: 5
stride: 1
weight_filler {
type: "xavier"
}
bias_filler {
type: "constant"
}
}
}
layer {
name: "pool2"
type: "Pooling"
bottom: "conv2"
top: "pool2"
pooling_param {
pool: MAX
kernel_size: 2
stride: 2
}
}
layer {
name: "ip1"
type: "InnerProduct"
bottom: "pool2"
top: "ip1"
param {
lr_mult: 1
}
param {
lr_mult: 2
}
inner_product_param {
num_output: 500
weight_filler {
type: "xavier"
}
bias_filler {
type: "constant"
}
}
}
layer {
name: "relu1"
type: "ReLU"
bottom: "ip1"
top: "ip1"
}
layer {
name: "ip2"
type: "InnerProduct"
bottom: "ip1"
top: "ip2"
param {
lr_mult: 1
}
param {
lr_mult: 2
}
inner_product_param {
num_output: 2
weight_filler {
type: "xavier"
}
bias_filler {
type: "constant"
}
}
}
layer {
name: "loss"
type: "SoftmaxWithLoss"
bottom: "ip2"
bottom: "label"
top: "loss"
}
layer {
name: "accuracy"
type: "Accuracy"
bottom: "ip2"
bottom: "label"
top: "accuracy"
include {
phase: TEST
}
}
I0709 00:05:33.926110 15830 layer_factory.hpp:75] Creating layer mnist
I0709 00:05:33.926223 15830 net.cpp:99] Creating Layer mnist
I0709 00:05:33.926234 15830 net.cpp:409] mnist -> data
I0709 00:05:33.926249 15830 net.cpp:409] mnist -> label
I0709 00:05:33.926261 15830 net.cpp:131] Setting up mnist
I0709 00:05:33.927167 15837 db.cpp:34] Opened lmdb /home/demulab/digits-2.0/digits/digits/jobs/20150709-000506-f35f/val_db
I0709 00:05:33.927387 15830 data_layer.cpp:37] Decoding Datum
I0709 00:05:33.927405 15830 data_layer.cpp:60] output data size: 100,3,32,32
I0709 00:05:33.927422 15830 data_transformer.cpp:23] Loading mean file from: /home/demulab/digits-2.0/digits/digits/jobs/20150709-000506-f35f/mean.binaryproto
I0709 00:05:33.933799 15830 net.cpp:140] Top shape: 100 3 32 32 (307200)
I0709 00:05:33.933825 15830 net.cpp:140] Top shape: 100 (100)
I0709 00:05:33.933836 15830 layer_factory.hpp:75] Creating layer label_mnist_1_split
I0709 00:05:33.933854 15830 net.cpp:99] Creating Layer label_mnist_1_split
I0709 00:05:33.933861 15830 net.cpp:453] label_mnist_1_split <- label
I0709 00:05:33.933872 15830 net.cpp:409] label_mnist_1_split -> label_mnist_1_split_0
I0709 00:05:33.933888 15830 net.cpp:409] label_mnist_1_split -> label_mnist_1_split_1
I0709 00:05:33.933898 15830 net.cpp:131] Setting up label_mnist_1_split
I0709 00:05:33.933910 15830 net.cpp:140] Top shape: 100 (100)
I0709 00:05:33.933943 15830 net.cpp:140] Top shape: 100 (100)
I0709 00:05:33.933949 15830 layer_factory.hpp:75] Creating layer scale
I0709 00:05:33.933961 15830 net.cpp:99] Creating Layer scale
I0709 00:05:33.933966 15830 net.cpp:453] scale <- data
I0709 00:05:33.933975 15830 net.cpp:409] scale -> scale
I0709 00:05:33.933985 15830 net.cpp:131] Setting up scale
I0709 00:05:33.933995 15830 net.cpp:140] Top shape: 100 3 32 32 (307200)
I0709 00:05:33.934000 15830 layer_factory.hpp:75] Creating layer conv1
I0709 00:05:33.934011 15830 net.cpp:99] Creating Layer conv1
I0709 00:05:33.934018 15830 net.cpp:453] conv1 <- scale
I0709 00:05:33.934026 15830 net.cpp:409] conv1 -> conv1
I0709 00:05:33.934036 15830 net.cpp:131] Setting up conv1
I0709 00:05:33.934640 15830 net.cpp:140] Top shape: 100 20 28 28 (1568000)
I0709 00:05:33.934661 15830 layer_factory.hpp:75] Creating layer pool1
I0709 00:05:33.934674 15830 net.cpp:99] Creating Layer pool1
I0709 00:05:33.934680 15830 net.cpp:453] pool1 <- conv1
I0709 00:05:33.934689 15830 net.cpp:409] pool1 -> pool1
I0709 00:05:33.934697 15830 net.cpp:131] Setting up pool1
I0709 00:05:33.934953 15830 net.cpp:140] Top shape: 100 20 14 14 (392000)
I0709 00:05:33.934964 15830 layer_factory.hpp:75] Creating layer conv2
I0709 00:05:33.934978 15830 net.cpp:99] Creating Layer conv2
I0709 00:05:33.934983 15830 net.cpp:453] conv2 <- pool1
I0709 00:05:33.934993 15830 net.cpp:409] conv2 -> conv2
I0709 00:05:33.935003 15830 net.cpp:131] Setting up conv2
I0709 00:05:33.936467 15830 net.cpp:140] Top shape: 100 50 10 10 (500000)
I0709 00:05:33.936497 15830 layer_factory.hpp:75] Creating layer pool2
I0709 00:05:33.936512 15830 net.cpp:99] Creating Layer pool2
I0709 00:05:33.936519 15830 net.cpp:453] pool2 <- conv2
I0709 00:05:33.936533 15830 net.cpp:409] pool2 -> pool2
I0709 00:05:33.936547 15830 net.cpp:131] Setting up pool2
I0709 00:05:33.936643 15830 net.cpp:140] Top shape: 100 50 5 5 (125000)
I0709 00:05:33.936652 15830 layer_factory.hpp:75] Creating layer ip1
I0709 00:05:33.936663 15830 net.cpp:99] Creating Layer ip1
I0709 00:05:33.936671 15830 net.cpp:453] ip1 <- pool2
I0709 00:05:33.936682 15830 net.cpp:409] ip1 -> ip1
I0709 00:05:33.936702 15830 net.cpp:131] Setting up ip1
I0709 00:05:33.944310 15830 net.cpp:140] Top shape: 100 500 (50000)
I0709 00:05:33.944349 15830 layer_factory.hpp:75] Creating layer relu1
I0709 00:05:33.944366 15830 net.cpp:99] Creating Layer relu1
I0709 00:05:33.944375 15830 net.cpp:453] relu1 <- ip1
I0709 00:05:33.944386 15830 net.cpp:396] relu1 -> ip1 (in-place)
I0709 00:05:33.944397 15830 net.cpp:131] Setting up relu1
I0709 00:05:33.944519 15830 net.cpp:140] Top shape: 100 500 (50000)
I0709 00:05:33.944527 15830 layer_factory.hpp:75] Creating layer ip2
I0709 00:05:33.944538 15830 net.cpp:99] Creating Layer ip2
I0709 00:05:33.944545 15830 net.cpp:453] ip2 <- ip1
I0709 00:05:33.944555 15830 net.cpp:409] ip2 -> ip2
I0709 00:05:33.944566 15830 net.cpp:131] Setting up ip2
I0709 00:05:33.944661 15830 net.cpp:140] Top shape: 100 2 (200)
I0709 00:05:33.944674 15830 layer_factory.hpp:75] Creating layer ip2_ip2_0_split
I0709 00:05:33.944694 15830 net.cpp:99] Creating Layer ip2_ip2_0_split
I0709 00:05:33.944700 15830 net.cpp:453] ip2_ip2_0_split <- ip2
I0709 00:05:33.944707 15830 net.cpp:409] ip2_ip2_0_split -> ip2_ip2_0_split_0
I0709 00:05:33.944717 15830 net.cpp:409] ip2_ip2_0_split -> ip2_ip2_0_split_1
I0709 00:05:33.944726 15830 net.cpp:131] Setting up ip2_ip2_0_split
I0709 00:05:33.944736 15830 net.cpp:140] Top shape: 100 2 (200)
I0709 00:05:33.944742 15830 net.cpp:140] Top shape: 100 2 (200)
I0709 00:05:33.944748 15830 layer_factory.hpp:75] Creating layer loss
I0709 00:05:33.944759 15830 net.cpp:99] Creating Layer loss
I0709 00:05:33.944766 15830 net.cpp:453] loss <- ip2_ip2_0_split_0
I0709 00:05:33.944773 15830 net.cpp:453] loss <- label_mnist_1_split_0
I0709 00:05:33.944782 15830 net.cpp:409] loss -> loss
I0709 00:05:33.944790 15830 net.cpp:131] Setting up loss
I0709 00:05:33.944799 15830 layer_factory.hpp:75] Creating layer loss
…
